…
&lt;span class=&quot;n&quot;&gt;model&lt;/span&gt;&lt;span class=&quot;p&quot;&gt;.&lt;/span&gt;&lt;span class=&quot;n&quot;&gt;summary&lt;/span&gt;&lt;span class=&quot;p&quot;&gt;()&lt;/span&gt;
&lt;/code&gt;&lt;/pre&gt;&lt;/div&gt;&lt;/div&gt;

&lt;div class=&quot;language-plaintext highlighter-rouge&quot;&gt;&lt;div class=&quot;highlight&quot;&gt;&lt;pre class=&quot;highlight&quot;&gt;&lt;code&gt;_________________________________________________________________
Layer (type)                 Output Shape              Param #   
=================================================================
conv2d_1 (Conv2D)            (None, 64, 64, 64)        832       
_________________________________________________________________
max_pooling2d_1 (MaxPooling2 (None, 32, 32, 64)        0         
_________________________________________________________________
conv2d_2 (Conv2D)            (None, 32, 32, 128)       32896     
_________________________________________________________________
max_pooling2d_2 (MaxPooling2 (None, 16, 16, 128)       0         
_________________________________________________________________
conv2d_3 (Conv2D)            (None, 16, 16, 256)       131328    
_________________________________________________________________
max_pooling2d_3 (MaxPooling2 (None, 8, 8, 256)         0         
_________________________________________________________________
conv2d_4 (Conv2D)            (None, 8, 8, 512)         524800    
_________________________________________________________________
max_pooling2d_4 (MaxPooling2 (None, 4, 4, 512)         0         
_________________________________________________________________
dropout_1 (Dropout)          (None, 4, 4, 512)         0         
_________________________________________________________________
flatten_1 (Flatten)          (None, 8192)              0         
_________________________________________________________________
dense_1 (Dense)              (None, 500)               4096500   
_________________________________________________________________
dropout_2 (Dropout)          (None, 500)               0         
_________________________________________________________________
dense_2 (Dense)              (None, 10)                5010      
=================================================================
Total params: 4,791,366
Trainable params: 4,791,366
Non-trainable params: 0
_________________________________________________________________
&lt;/code&gt;&lt;/pre&gt;&lt;/div&gt;&lt;/div&gt;

&lt;div class=&quot;language-python highlighter-rouge&quot;&gt;&lt;div class=&quot;highlight&quot;&gt;&lt;pre class=&quot;highlight&quot;&gt;&lt;code&gt;&lt;span class=&quot;kn&quot;&gt;import&lt;/span&gt; &lt;span class=&quot;nn&quot;&gt;pydot&lt;/span&gt;
…
